task3/agent_weights.pkl (torch, 72008 bytes, 6 tensors)

network.0.weight f4 [128, 4]
0	0x3e19e97b	0.15030472
1	0x3eab9505	0.3351213
2	0xbe9b2a42	-0.30305678
3	0x3ed36fe4	0.41296303
4	0x3e28dd68	0.1649071
5	0x3eaed428	0.34146237
6	0x3fa57756	1.2927043
7	0x3eca225f	0.39479348
8	0x3ef45e64	0.47728264
9	0x3e0452ba	0.12922183
10	0x40040184	2.0625925
11	0x3e411f6d	0.18859644
12	0x3f122f30	0.5710325
13	0x3daaaf03	0.08334162
14	0xbe0b10a4	-0.13580567
15	0xbd6e3a94	-0.058161333
16	0x3e238464	0.15968472
17	0x3cbf817d	0.023377175
18	0xbee9cc44	-0.45663655
19	0x3dc02c24	0.09383419
20	0xbed5a885	-0.41730133
21	0xbd14d219	-0.036333177
22	0x3f16ed02	0.58955395
23	0xbc482a3f	-0.0122171035
24	0xbeafa803	-0.3430787
25	0xbe621fd3	-0.22082452
26	0xbeb353a0	-0.35024738
27	0xbe4cdf8f	-0.20007156
28	0x3e3cb135	0.18426974
29	0xbf4362c1	-0.7632256
30	0xbef5e0bc	-0.4802302
31	0xbf040769	-0.51573807
32	0x3f05cd1f	0.52266115
33	0x3e60b5cd	0.21944351
34	0xbeff1604	-0.49821484
35	0x3e851bab	0.2599767
36	0xbdde9b46	-0.1086946
37	0x3e9ce67c	0.30644596
38	0x3deffef7	0.117185526
39	0xbca2006e	-0.019775596
40	0x3ee9d065	0.45666805
41	0x3e8ad463	0.27115163
42	0x3fbf25a7	1.4933366
43	0x3ea26350	0.31716394
44	0x3e555a19	0.20835151
45	0xbe104b20	-0.14091158
46	0x3dd0b651	0.10191024
47	0xbcd6dcb8	-0.026228294
48	0x3e9238df	0.28559014
49	0xbe97d595	-0.29655138
50	0xbf682864	-0.9068663
51	0xbe45ed24	-0.19328743
52	0xbf1fd1e6	-0.62429655
53	0x3e7d51c8	0.24738228
54	0xbe4ec491	-0.20192172
55	0x3df1f4bc	0.118142575
56	0x3da1bf06	0.07897763
57	0xbda07e1f	-0.07836556
58	0x3ee7f820	0.45306492
59	0xbe4a25c6	-0.19740972
60	0x3d8e02b8	0.06934112
61	0xbe944443	-0.2895833
62	0xbd80322b	-0.06259569
63	0xbe489d97	-0.19591366
64	0x3e5cb78d	0.21554394
65	0xbe47ee88	-0.19524586
66	0x3ebb768b	0.3661388
67	0xbe3142d1	-0.17310645
68	0xbd0abdf2	-0.033872552
69	0x3d422404	0.04739763
70	0x3f56a2b6	0.8384203
71	0x3c40bce9	0.01176379
72	0x3f0ff21e	0.56228817
73	0xbecbebf0	-0.39828444
74	0xbf896dd5	-1.0736643
75	0xbeac05db	-0.33598217
76	0x3e20b356	0.15693411
77	0x3f02d273	0.5110237
78	0x3fce8769	1.6135074
79	0x3ee7fe75	0.45311323
80	0x3e0d53c6	0.13801488
81	0xbdeb74f0	-0.114969134
82	0x3e535901	0.20639421
83	0xbe2afe86	-0.16698655
84	0x3e6dfaab	0.23240153
85	0xbe506a81	-0.20353128
86	0x3cfc95ba	0.030833114
87	0xbe86bf24	-0.26317704
88	0xbe780c2b	-0.24223392
89	0x3e1d0996	0.15335688
90	0x3be258cb	0.0069075576
91	0xbd1528e1	-0.03641594
92	0x3ebad832	0.3649307
93	0x3ee58602	0.44828802
94	0x3e1f38b0	0.15548968
95	0x3ebf8285	0.37404266
96	0x3f603a1f	0.87588686
97	0xbe318ae5	-0.1733814
98	0xbf2b9c1a	-0.6703507
99	0xbe7912ec	-0.24323624
100	0xbe441e32	-0.19152144
101	0xbc27f9bb	-0.0102524115
102	0x3e8d692d	0.27619305
103	0xbb94af7a	-0.00453752
104	0x3e81329c	0.25233924
105	0xbe78291d	-0.24234433
106	0xbfbca7be	-1.4738691
107	0xbe858c0c	-0.2608341
108	0xbec7ae55	-0.39000192
109	0xbe438f7e	-0.19097707
110	0x3ead1acc	0.33809507
111	0xbc8f8dbc	-0.017523639
112	0x3d0f86f6	0.03504082
113	0xbf1b3cc7	-0.60639614
114	0xbed01f3c	-0.4064883
115	0xbef02b95	-0.4690825
116	0x3eebb543	0.4603673
117	0xbe2a025a	-0.1660246
118	0xbf100e83	-0.56272143
119	0xbe4fc960	-0.20291662
120	0x3eced36b	0.40395674
121	0xbe1a65b9	-0.15077867
122	0xbf87df76	-1.061507
123	0xbe3ba92e	-0.18326256
124	0x3da657fd	0.08122251
125	0xbeb4cdb8	-0.353132
126	0xbf34cbef	-0.7062368
127	0xbe778c5c	-0.24174637
128	0x3e69268f	0.22768615
129	0xbd80b3c4	-0.062842876
130	0x3eb0eed4	0.3455721
131	0x3d7d6a6b	0.061869066
132	0xbe9a8c40	-0.30185127
133	0x3eee5262	0.46547228
134	0x3e9277f4	0.28607142
135	0x3dbe0ed6	0.092801735
136	0xbed4c6be	-0.41557878
137	0xbec7bf3a	-0.39013082
138	0xbb84b9a6	-0.0040504513
139	0xbe2762ba	-0.16346255
140	0x3e7e2233	0.24817733
141	0xbec769d6	-0.38947934
142	0x3e55c2f0	0.20875144
143	0xbea32636	-0.3186509
144	0xbd525a83	-0.05135585
145	0x3e5992fe	0.2124748
146	0x3da3c70f	0.07996952
147	0x3e9e655a	0.309367
148	0x3f8bee7e	1.0932157
149	0x3db55911	0.08854879
150	0x3e50d7be	0.20394799
151	0x3d5d98b5	0.05410071
152	0x3f0ec3fe	0.5576781
153	0xbe7dcd47	-0.24785338
154	0xbf97d091	-1.1860524
155	0xbe65b1d9	-0.22431125
156	0x3d5eab7d	0.054362763
157	0x3d4d01bf	0.050050493
158	0x3e75fc7a	0.24022093
159	0xbe2284a3	-0.1587091
160	0x3f396f7f	0.72435755
161	0x3ea5ad93	0.3235899
162	0x3e9c4cd8	0.30527377
163	0x3e70f961	0.2353263
164	0x3e1e41e9	0.1545483
165	0xbd0b9297	-0.034075346
166	0xbf331d24	-0.6996634
167	0x3e6d2714	0.23159438
168	0x3e9bdb18	0.30440593
169	0xbe4071ba	-0.18793383
170	0xbf62d797	-0.88610214
171	0xbcae8b50	-0.021306664
172	0x3edeff7c	0.43554294
173	0xbd1d78ac	-0.03844516
174	0xbead6a2f	-0.33870074
175	0xbe3f1527	-0.18660413
176	0xbeb47f9f	-0.35253617
177	0x3e2b855a	0.16750088
178	0x3f3ab24a	0.729283
179	0xbe7dfe3f	-0.24804018
180	0xbe07b579	-0.1325282
181	0x3e396898	0.18106306
182	0x3ee49d31	0.44651178
183	0x3d52d2b8	0.05147049
184	0x3c308135	0.010772993
185	0x3e02dd4f	0.12779735
186	0x3e53d91f	0.20688294
187	0x3d0a696e	0.03379195
188	0xbdfcd90b	-0.12346085
189	0x3dbbdd75	0.09173099
190	0xbe881394	-0.26577437
191	0xbdc9b632	-0.09849204
192	0x3ccdeca0	0.025137246
193	0x3e82d09c	0.2554978
194	0xbc8da7b0	-0.017291874
195	0x3d77c22e	0.06048792
196	0x3c0f1758	0.008733593
197	0x3c569621	0.013097317
198	0x3d04179f	0.03224909
199	0x3e323184	0.17401701
200	0xbea7bc52	-0.32760864
201	0xbe59ac01	-0.2125702
202	0x3eccbc44	0.39987385
203	0xbe144638	-0.14479911
204	0x3ec377cb	0.38177332
205	0xbecd92dc	-0.40151107
206	0xbf9f3c44	-1.2440267
207	0xbe900bc6	-0.28133982
208	0x3d8b9c80	0.068169594
209	0x3e841288	0.25795388
210	0x3fdac8d9	1.7092544
211	0x3e9396bb	0.28825936
212	0xbf0708ca	-0.52747786
213	0xbe55b643	-0.20870309
214	0x3ebc74ec	0.36807954
215	0xbd0ecee2	-0.034865268
216	0x3d942118	0.07232875
217	0xbe0497d0	-0.12948537
218	0x3e53d27c	0.20685762
219	0xbe4302e8	-0.19044077
220	0xbe25d8da	-0.16196004
221	0x3e8ad64f	0.2711663
222	0xbf1cec34	-0.6129792
223	0xbe989586	-0.29801577
224	0xbf4cf6f9	-0.8006435
225	0x3eb9b7ca	0.36273032
226	0x3ef91c75	0.48654523
227	0x3eaf3df0	0.34226942
228	0xbede3b78	-0.43404746
229	0xbeb09e4d	-0.34495774
230	0xbd27dc8f	-0.040981825
231	0xbdc9d6d7	-0.098554306
232	0x3ecf3a91	0.4047437
233	0x3f39c6b5	0.7256883
234	0x3f9b0f81	1.2114106
235	0x3f051135	0.5197938
236	0x3ec61de1	0.3869467
237	0xbeed1dcd	-0.463118
238	0xbfba9541	-1.4576799
239	0xbea38765	-0.31939235
240	0x3f2a5971	0.66542727
241	0xbcde4d32	-0.027136419
242	0xbef8ef0d	-0.4861988
243	0xbd9f97fc	-0.077926606
244	0x3dfb3493	0.12265887
245	0xbe5db40c	-0.21650714
246	0xbf2fa51f	-0.6861133
247	0x3e393015	0.18084748
248	0xbe72d324	-0.23713356
249	0x3e8fd6d6	0.28093594
250	0xbd23fc22	-0.040035374
251	0xbe130e17	-0.14360844
252	0x3ed04ea4	0.40684998
253	0xbda6eed8	-0.081510246
254	0xbfaaba44	-1.3338094
255	0xbe4a8018	-0.19775426

network.0.bias f4 [128]
0	0x3e5d17e1	0.2159114
1	0xbe73fd40	-0.23827076
2	0xbde54c5e	-0.111962065
3	0xbe8d2e16	-0.27574223
4	0x3f31b079	0.694099
5	0xbf34621b	-0.704622
6	0x3f1182ab	0.5684001
7	0xbd97620a	-0.07391746
8	0x3d8e265c	0.0694091
9	0x3f0ac153	0.5420124
10	0xbd3859f0	-0.045007646
11	0x3f156a99	0.5836578
12	0x3f13147c	0.5745313
13	0xbeeb9113	-0.4600912
14	0x3ebbf3d0	0.36709452
15	0x3e6b5e48	0.22985184
16	0x3e24d73f	0.16097735
17	0xbe158143	-0.1460009
18	0x3eee64dd	0.46561328
19	0xbe2fdba6	-0.17173633
20	0xbe20619a	-0.15662232
21	0x3f23ca43	0.639805
22	0x3f12683c	0.571903
23	0xbe00f987	-0.12595187
24	0xbf1aa6b1	-0.604106
25	0xbebfd6f5	-0.37468687
26	0xbf01549b	-0.5051972
27	0x3f1b54e1	0.6067639
28	0xbe93c360	-0.28859997
29	0xbf0651b5	-0.52468425
30	0xbf06a588	-0.5259633
31	0xbdde0769	-0.10841257
32	0x3f3d9f0a	0.740708
33	0x3d8d8dde	0.06911825
34	0x3ef7ec7e	0.48422617
35	0x3f15baa4	0.58487916
36	0x3f30fbc3	0.6913416
37	0x3d2562de	0.04037749
38	0xbf1e43e0	-0.6182232
39	0x3ecb1dec	0.39671266
40	0xbe01c621	-0.12673236
41	0x3ef56224	0.47926438
42	0x3e01c4a8	0.12672675
43	0xbebb1a8c	-0.3654369
44	0x3e4f7c4f	0.20262264
45	0x3e80c396	0.2514922
46	0x3efed230	0.49769735
47	0x3f3a64b2	0.728099
48	0x3f145a4b	0.57950276
49	0x3f367730	0.71275616
50	0xbec53d16	-0.38523167
51	0xbf33dc32	-0.70257866
52	0xbebc1e20	-0.36741734
53	0xbf0b1b95	-0.5433896
54	0xbee1997e	-0.44062418
55	0xbeb69b93	-0.3566557
56	0xbe462ca3	-0.19352965
57	0xbf68950d	-0.90852433
58	0xbe0043ea	-0.12525907
59	0xbf3297ed	-0.6976307
60	0xbed0d7f7	-0.40789768
61	0x3e9e49fd	0.30915824
62	0x3f1f04b7	0.6211657
63	0xbefe60d4	-0.4968325
64	0xbd0bfec3	-0.034178507
65	0x3eee4007	0.46533224
66	0xbe17fdcd	-0.14842911
67	0xbf1cf8c1	-0.6131707
68	0x3f014b62	0.5050565
69	0xbf1a83db	-0.60357445
70	0x3e45d280	0.1931858
71	0x3f21b5e9	0.631682
72	0x3eb114fa	0.34586316
73	0x3df2127b	0.11819931
74	0xbeb8b5b4	-0.36076128
75	0xbe59930f	-0.21247505
76	0x3e2c0564	0.16798931
77	0x3e8b76f0	0.2723918
78	0x3ed755db	0.4205769
79	0x3f2b157a	0.66829646
80	0xbefe9adf	-0.49727532
81	0xbe1cc6b0	-0.15310168
82	0xbf09956a	-0.5374361
83	0xbf0eaf31	-0.5573607
84	0xbe6d3937	-0.23166357
85	0xbf160a69	-0.58609635
86	0x3f03f37f	0.5154342
87	0xbebc8fe6	-0.36828536
88	0xbe3d022b	-0.18457858
89	0x3f0562c6	0.5210384
90	0xbefad7d0	-0.48992777
91	0xbeafd503	-0.34342203
92	0xbe8ec298	-0.27882838
93	0xbeb24b52	-0.3482309
94	0xbe1e2cc0	-0.15446758
95	0xbda7263d	-0.0816159
96	0x3f15b191	0.5847407
97	0x3f3b2f8b	0.7311942
98	0x3ee53d91	0.44773534
99	0xbf05d334	-0.52275395
100	0xbe158254	-0.14600497
101	0x3f2d9600	0.67807007
102	0x3ecd1a44	0.40059102
103	0x3d81e736	0.06342928
104	0xbe3b1c93	-0.18272619
105	0xbf22b445	-0.6355632
106	0xbf1b696b	-0.6070773
107	0x3f36e675	0.714454
108	0xbec6718f	-0.38758513
109	0x3ba6f1d6	0.005094747
110	0xbee21b69	-0.44161537
111	0xbeb1ec30	-0.3475051
112	0xbf3a7fd5	-0.72851306
113	0xbe73ea5c	-0.2381987
114	0xbe93264c	-0.28740156
115	0x3ea7246e	0.3264498
116	0xbefaafa3	-0.48962125
117	0x3ea46257	0.32106277
118	0xbec1ae72	-0.37828404
119	0xbf0e021f	-0.55471987
120	0x3eb8be02	0.36082464
121	0x3f14fb66	0.58196104
122	0xbdd60188	-0.10449511
123	0xbd75e73d	-0.06003498
124	0xbf097ce3	-0.53706187
125	0xbec04eda	-0.3756016
126	0xbe9bbc36	-0.3041703
127	0xbe5f86c6	-0.21828756

network.2.weight f4 [128, 128]
0	0x3b08a44b	0.002084988
1	0xbf6bde9a	-0.9213654
2	0xbf684184	-0.9072497
3	0xbda3dea1	-0.080014475
4	0x3e02536b	0.12727134
5	0xbf303fb1	-0.68847185
6	0x3e822364	0.25417626
7	0xbe5f9ed2	-0.21837929
8	0xbe0d875c	-0.13821167
9	0x3dec45b6	0.11536734
10	0xbeaabb37	-0.3334596
11	0x3e1073f2	0.1410673
12	0x3e9915f4	0.2989956
13	0xbe296877	-0.16543756
14	0x3e0bef5b	0.13665526
15	0x3e49b671	0.19698502
16	0x3d328c00	0.043590546
17	0xbd9e4cfe	-0.07729529
18	0x3e51c0a8	0.20483649
19	0xbf118dad	-0.56856805
20	0xbdf9a33d	-0.12189338
21	0x3e56cedf	0.20977353
22	0x3ded9a36	0.11601679
23	0xbe9103d1	-0.28323224
24	0xbf7b81ea	-0.9824511
25	0xbd299bad	-0.04140823
26	0xbf5ad2d3	-0.8547794
27	0x3e4a9b19	0.19785728
28	0xbdb04a6a	-0.08607943
29	0xbf381b16	-0.7191633
30	0xbf00845f	-0.5020198
31	0xbbd4fa54	-0.006499568
32	0x3e98a15c	0.29810607
33	0x3d2792a2	0.040911324
34	0x3e0dff25	0.13866861
35	0x3e8d88f4	0.2764355
36	0x3e43d009	0.19122328
37	0xbec20654	-0.37895453
38	0xbe93ece1	-0.28891662
39	0x3d8a6eea	0.067594364
40	0xbeaafbed	-0.3339533
41	0x3e0be93c	0.1366319
42	0xbbec52cb	-0.007212018
43	0xbf05b563	-0.522299
44	0x3d4af45a	0.049549438
45	0x3e51d297	0.2049049
46	0x3da2952d	0.07938609
47	0x3e438697	0.1909431
48	0x3d1703ec	0.036868975
49	0x3e318d9e	0.17339179
50	0xbcf407f6	-0.029788952
51	0xbf8ad0f3	-1.0845016
52	0xbfa817b3	-1.3132232
53	0xbc954d68	-0.018225387
54	0x3c8daad2	0.017293368
55	0x3e596fc7	0.21234046
56	0x3e8ce023	0.27514753
57	0xbe7e72ea	-0.24848524
58	0xbf197274	-0.59940267
59	0xbf5cd59c	-0.8626344
60	0xbf6eb3ff	-0.932434
61	0x3ddf9b8e	0.109183416
62	0x3de36833	0.11103859
63	0xbf0fe3eb	-0.5620715
64	0x3cd6f8bb	0.02624165
65	0x3e0e5b4c	0.13902014
66	0xbecffad9	-0.4062107
67	0xbe862434	-0.26199496
68	0x3d40000b	0.04687504
69	0xbe1e71aa	-0.15473047
70	0x3ddeb468	0.108742535
71	0x3e782d56	0.24236044
72	0x3d9bc93c	0.07606742
73	0xbc1f98fa	-0.009741062
74	0xbf4fd9e2	-0.8119184
75	0xbf231019	-0.6369644
76	0x3eae97bd	0.34100142
77	0xbd3a1e90	-0.045439303
78	0x3e129bb3	0.14317207
79	0x3dd16bd3	0.10225644
80	0xbf592172	-0.8481666
81	0xbe0a6ed5	-0.13518842
82	0xbe92299e	-0.28547376
83	0x3d0f5645	0.034994382
84	0xbf4b576d	-0.79430276
85	0xbf51a457	-0.8189139
86	0x3e7edb2d	0.24888296
87	0xbd12325c	-0.035692558
88	0xbf792aa7	-0.9733071
89	0x3d953cca	0.07286985
90	0xbe9c6801	-0.305481
91	0xbee01c4a	-0.43771583
92	0xbeb4b325	-0.35292926
93	0xbfbe787d	-1.488052
94	0xbe3679bb	-0.17819874
95	0xbefa8b4c	-0.489344
96	0x3da6f83f	0.08152818
97	0x3e213eef	0.15746664
98	0x3de0dfdf	0.109802
99	0xbe75094f	-0.23929332
100	0xbeb2952f	-0.34879443
101	0x3e7f4404	0.2492829
102	0x3e13c6c1	0.14431287
103	0x3d986b6e	0.074423656
104	0xbdec5a8d	-0.11540709
105	0xbf2167c5	-0.63048965
106	0xbe81e859	-0.2537258
107	0x3e1f8309	0.1557733
108	0xbe8a4c5a	-0.27011377
109	0x3c296b61	0.0103405425
110	0xbf74b74a	-0.95592177
111	0xbda5aa2f	-0.080891006
112	0xbe9afeb2	-0.30272442
113	0x3dc51296	0.096226856
114	0xbbe60c9f	-0.0070205475
115	0x3c813886	0.015774023
116	0xbec57a3d	-0.38569823
117	0x3dcb3f76	0.099242136
118	0xbf17f720	-0.5936146
119	0xbe563107	-0.2091714
120	0x3df10e2f	0.117702834
121	0x3e461224	0.19342858
122	0xbe9d95b0	-0.30778265
123	0xbed7326b	-0.42030653
124	0xbebed4e0	-0.37271786
125	0xbe2836f9	-0.1642722
126	0xbeda209d	-0.42603007
127	0xbddd9ab8	-0.10820526
128	0x3e1e1d87	0.15440951
129	0xbe271eac	-0.16320294
130	0xbeae786d	-0.34076253
131	0x3eb04724	0.34429276
132	0x3e9592b4	0.29213488
133	0xbf290fac	-0.6603954
134	0x3e34c2c5	0.17652424
135	0xbdc740ab	-0.09729131
136	0x3e6412fa	0.22272864
137	0x3e72477a	0.23660079
138	0x3e0f5473	0.13997059
139	0x3ea74007	0.32666036
140	0x3eb76ac7	0.35823652
141	0xbea3cfeb	-0.31994566
142	0x3e276ccb	0.16350095
143	0x3e43cc86	0.19120988
144	0xbaa26588	-0.0012389878
145	0x3dd481f1	0.10376347
146	0x3ee73f1e	0.45165342
147	0xbdd7533d	-0.10513923
148	0xbc9d1112	-0.019173179
149	0x3ebd7530	0.3700347
150	0x3e5c43e7	0.21510278
151	0x3d2e4eb4	0.042555526
152	0xbeaddce3	-0.33957586
153	0xbe784e9d	-0.24248739
154	0xbfb38915	-1.4026209
155	0x3e237c4a	0.15965381
156	0xbe080525	-0.13283212
157	0xbf18e55a	-0.5972496
158	0xbfb3e48b	-1.4054121
159	0x3c006380	0.007836223
160	0x3ea9aef4	0.3314129
161	0xba5a5e17	-0.00083300605
162	0x3e1f6902	0.15567401
163	0x3ea72f2f	0.32653186
164	0x3ea7a425	0.3274242
165	0x3daa73b4	0.0832285
166	0xbf054bcf	-0.520688
167	0x3e268072	0.16259935
168	0x3e0cbace	0.13743135
169	0x3e860c48	0.26181245
170	0x3e29d8b4	0.16586572
171	0x3e5cea20	0.21573687
172	0x3d7b88df	0.061409827
173	0x3e3bd08f	0.18341278
174	0x3e821592	0.25407082
175	0x3e8c1173	0.27357063
176	0x3e6c2c58	0.23063791
177	0x3ec877ae	0.39153808
178	0x3c680d21	0.014163286
179	0xbf87eac2	-1.0618517
180	0xbf74a7d2	-0.95568573
181	0x3d85524e	0.06509839
182	0xbd4dbcb4	-0.05022879
183	0xbe3ac1f3	-0.18238048
184	0x3e7e8dba	0.24858752
185	0xbe3af9d8	-0.1825937
186	0xbcf6e13c	-0.030136697
187	0xbfa94c60	-1.3226433
188	0xbf4e9281	-0.806923
189	0x3e4d7bca	0.20066753
190	0x3e7d552b	0.2473952
191	0xbf7fb237	-0.9988131
192	0x3de5de30	0.112240195
193	0x3e936c85	0.2879373
194	0x3d4d390c	0.050103232
195	0xbf34d36e	-0.70635116
196	0x3e0ef88e	0.13962004
197	0xbeaa47a6	-0.33257788
198	0x3dee277b	0.11628624
199	0x3e90e85e	0.28302282
200	0x3ea2ceb0	0.31798315
201	0xbcc666e9	-0.024218993
202	0xbf2aba36	-0.66690385
203	0xbfbbdd16	-1.4676845
204	0x3e1c263a	0.15248957
205	0x3e4cd0d5	0.20001538
206	0x3e937e49	0.28807285
207	0x3e78e7c3	0.2430716
208	0xbf330f49	-0.699452
209	0xbd6e2675	-0.058142144
210	0xbd00c6bd	-0.03143953
211	0xbdc74c53	-0.097313546
212	0xbf6692fc	-0.9006803
213	0xbf8cfbc0	-1.1014328
214	0x3e1d60ff	0.15369032
215	0x3e2cdf83	0.16882138
216	0xbe5dc557	-0.2165731
217	0x3eb62fee	0.35583442
218	0xbe6ca55e	-0.23109958
219	0xbf237cbf	-0.6386222
220	0xbd38e5cd	-0.04514103
221	0xbfc4a2c0	-1.5362167
222	0x3c9d8a7c	0.019231074
223	0xbce1a035	-0.027542213
224	0x3e375a81	0.17905618
225	0x3ecb0f8b	0.39660296
226	0x3e634685	0.2219487
227	0xbe6ad26c	-0.22931832
228	0x3c3292b7	0.010899237
229	0x3e5470c2	0.20746139
230	0x3e0e4c92	0.13896397
231	0x3e427f0a	0.18993774
232	0x3b97fc46	0.0046382276
233	0xbefd11f8	-0.49427772
234	0xbf4232dc	-0.75858855
235	0x3e84c9b4	0.25935137
236	0x3e05ad4e	0.13054392
237	0x3e4b7d3d	0.19871993
238	0xbf13a08f	-0.5766687
239	0xbd389652	-0.04506523
240	0xbf180411	-0.59381205
241	0x3defd962	0.11711384
242	0x3d28636a	0.041110434
243	0x3e604e24	0.21904808
244	0xbe6d3e1c	-0.23168224
245	0x3e932d69	0.28745583
246	0xbe649529	-0.22322525
247	0xbe987c39	-0.29782274
248	0x3e464c1a	0.19364968
249	0x3e7e09a1	0.2480836
250	0x3cab717f	0.020928143
251	0x3e834f15	0.25646272
252	0x3dfe5978	0.124194086
253	0xbd2aa309	-0.04165939
254	0x3cbaddb2	0.02281079
255	0x3d79d266	0.060991667

network.2.bias f4 [128]
0	0x3e84f986	0.2597162
1	0x3eb3d885	0.3512613
2	0xbdaf15bf	-0.085490696
3	0xbd20216a	-0.039094366
4	0x3cbc00e2	0.02294964
5	0x3e9b6a07	0.3035433
6	0x3e5ff181	0.2186947
7	0x3d84ab4a	0.06477983
8	0xbd04b404	-0.03239824
9	0x3e207a73	0.1567171
10	0xbd0af19f	-0.033921834
11	0xbe08b2c5	-0.13349445
12	0xbdaf0817	-0.08546465
13	0xbc6515a8	-0.013982214
14	0x3e5f4ad3	0.21805887
15	0x3e6e4668	0.23269045
16	0x3ebdef4c	0.37096632
17	0x3e417633	0.18892746
18	0x3ebfaa54	0.37434638
19	0x3e360dc0	0.17778683
20	0x3e30d019	0.17266883
21	0x3e58a921	0.21158268
22	0xbda41110	-0.08011067
23	0x3e9df84c	0.30853498
24	0xbca5cbb6	-0.020238739
25	0x3ea5be33	0.32371673
26	0x3e8b5d3f	0.2721958
27	0xbdae0f41	-0.08499003
28	0x3ebc9d9e	0.36839002
29	0x3c8bef12	0.017081771
30	0xbc7f67e2	-0.015588732
31	0x3e1fd9d8	0.15610445
32	0xbe5a1326	-0.21296367
33	0x3eb95b38	0.36202407
34	0xbb8bd7fb	-0.0042676902
35	0x3d64a219	0.05581865
36	0x3ed169c7	0.40901014
37	0xbe1bb185	-0.15204437
38	0x3ed9aa95	0.42512956
39	0x3d273f0b	0.040831607
40	0xbd1936d1	-0.037405793
41	0x3e2f146f	0.17097639
42	0xbb92de2c	-0.0044820514
43	0x3eb9317c	0.36170566
44	0xbe0b0625	-0.13576563
45	0x3c870b32	0.01648483
46	0x3e9111b9	0.28333834
47	0xbd8e1b3c	-0.06938788
48	0x3e860eff	0.26183316
49	0xbdb67cb6	-0.089105055
50	0x3e08188d	0.13290615
51	0x3e7d8ce1	0.24760772
52	0x3e70d25c	0.23517746
53	0x3ed16d2e	0.4090361
54	0x3e90aee3	0.28258428
55	0xbd0b9241	-0.034075025
56	0x3ea4a8a7	0.32159922
57	0xbd96627b	-0.073430024
58	0x3ea18792	0.31548744
59	0x3e024617	0.1272205
60	0x3ef1b872	0.47211033
61	0x3ea256a1	0.31706718
62	0x3e8e1081	0.27746966
63	0xbd793722	-0.060843594
64	0x3ee36b43	0.44417772
65	0x3e86df51	0.26342252
66	0x3e50dcad	0.20396681
67	0x3ee0ca8e	0.43904537
68	0x3b85c70e	0.004082567
69	0x3e447f3f	0.19189166
70	0x3c0753d3	0.008259731
71	0x3e9e1677	0.30876514
72	0x3e71788d	0.23581143
73	0x3b398c90	0.0028312542
74	0xbe1eb5a0	-0.15498972
75	0xbd90d86a	-0.07072528
76	0x3e42eb11	0.19034983
77	0x3c9c01ea	0.019043881
78	0x3e8d6eda	0.27623636
79	0xbc22c69c	-0.0099350475
80	0x3cefac59	0.029256986
81	0x3eebc419	0.46048048
82	0x3d2f9c9d	0.042873967
83	0x3e85bb45	0.26119438
84	0x3ec73232	0.38905483
85	0x3e8598b4	0.26093066
86	0xbc984fa0	-0.018592656
87	0xbd99f560	-0.07517505
88	0xbe0c56a3	-0.13704924
89	0x3e826fb9	0.25475863
90	0x3ef30945	0.4746801
91	0x3ce79ddc	0.028273515
92	0x3e7d6db7	0.24748884
93	0x3cd6332e	0.026147451
94	0xbdc15d97	-0.09441679
95	0xbdc12135	-0.09430162
96	0x3c85be50	0.0163261
97	0xbd11c41b	-0.03558741
98	0x3d044ba9	0.032298718
99	0x3dcf48a8	0.1012128
100	0x3e8f53d1	0.27993634
101	0xbd9dea66	-0.077107236
102	0x3eddb5fd	0.4330291
103	0x3e6e4f53	0.23272447
104	0x3e269f3b	0.16271679
105	0x3d625d2c	0.055264637
106	0x3eb638f4	0.35590327
107	0xbd921782	-0.0713339
108	0x3e88d40f	0.26724288
109	0x3e93cbfb	0.28866562
110	0x3e04bb8e	0.12962171
111	0xbc805684	-0.015666254
112	0x3ecfde89	0.40599468
113	0x3ed52aad	0.41634122
114	0x3ebca0b5	0.3684136
115	0x3e90df7e	0.2829551
116	0xbb0f1bd4	-0.0021836655
117	0x3c973617	0.01845841
118	0xbd512e71	-0.05106968
119	0x3c62b0a0	0.013836056
120	0x3eb1ebca	0.34750205
121	0x3eb131c7	0.3460829
122	0x3eceb341	0.40371135
123	0x3d34e52b	0.044163864
124	0x3e56d72a	0.20980516
125	0x3ee1fedf	0.44139764
126	0x3e9d60c1	0.3073788
127	0x3ecd7bf1	0.40133622

network.4.weight f4 [2, 128]
0	0x3ed1fe2d	0.41014233
1	0x3e134aed	0.1438405
2	0xbcd1e46d	-0.025621617
3	0xbe025b1c	-0.12730068
4	0xbd34cf5c	-0.044143066
5	0x3e9aaaaa	0.3020833
6	0x3eee3b01	0.4652939
7	0xbd0c7cbc	-0.034298643
8	0xbf141a38	-0.57852507
9	0x3ec0e2ff	0.37673184
10	0x3ce6a97e	0.028156992
11	0xbfe20181	-1.7656709
12	0x3c39244e	0.01130016
13	0xbf0e4cd9	-0.5558601
14	0x3ee2f585	0.44327942
15	0x3ee48d5b	0.44639096
16	0x3ed45a76	0.41475266
17	0x3efb4838	0.49078536
18	0x3ebccb36	0.36873788
19	0x3eaa93e6	0.33315963
20	0x3eda7341	0.42666057
21	0x3edfebc8	0.43734574
22	0xbcf1addc	-0.029501848
23	0x3e3a6606	0.18202981
24	0xbe5382f5	-0.20655425
25	0x3ee4783d	0.44622985
26	0x3ee1dbdb	0.4411305
27	0xbeb6a022	-0.35669047
28	0x3f064fb5	0.52465373
29	0xbd642708	-0.055701286
30	0xbe80c64a	-0.25151283
31	0x3ed06007	0.40698263
32	0xbfac750d	-1.3473221
33	0x3f07b595	0.5301145
34	0xbcbada17	-0.022809071
35	0x3d6de767	0.05808201
36	0x3ed1075c	0.40825927
37	0xbf3fae3f	-0.74875253
38	0x3f093a99	0.5360504
39	0x392b44c0	0.00016333442
40	0x3e9b270f	0.30303237
41	0x3f05aa4d	0.52212983
42	0xbd6534e6	-0.05595865
43	0x3f01db0e	0.50724876
44	0xbe83da54	-0.2575251
45	0xbed819d6	-0.4220721
46	0x3ee323c3	0.44363222
47	0xbc8ba134	-0.017044641
48	0xbe296b42	-0.16544822
49	0xbd317f85	-0.043334503
50	0x3ee85c9b	0.45383152
51	0x3ef6a5d8	0.48173404
52	0x3eb1dec2	0.34740263
53	0x3ed5730c	0.41689336
54	0x3eed69ca	0.46369773
55	0xbd5dc65d	-0.054144252
56	0x3ee02b0d	0.43782845
57	0x3d80e5a0	0.062937975
58	0x3ede317e	0.43397135
59	0x3eb1decb	0.3474029
60	0x3f055d9a	0.5209595
61	0x3ed52f46	0.4163763
62	0x3f039525	0.5139945
63	0x3d918a5c	0.07106468
64	0x3f05c5e9	0.5225511
65	0x3ec0b84f	0.37640616
66	0x3ec5c1ba	0.38624364
67	0x3edce6be	0.43144792
68	0xbd91b203	-0.07114031
69	0x3ebf2203	0.37330636
70	0xbd14b511	-0.03630549
71	0x3eb6435b	0.35598263
72	0x3ea95111	0.3306966
73	0xbc974712	-0.018466506
74	0xbfca1dd3	-1.5790352
75	0xbd5e5aef	-0.05428594
76	0x3ee3447b	0.44388184
77	0x3dc52d95	0.09627835
78	0x3e91a00f	0.28442428
79	0xbd46b299	-0.048510168
80	0xbf8d14f2	-1.1022017
81	0x3e1e91b4	0.15485269
82	0xbd9f50ec	-0.077791065
83	0x3ef83e33	0.48484954
84	0x3f074c44	0.5285075
85	0x3ee515c2	0.44743162
86	0xbee0fbef	-0.4394221
87	0xbd466de4	-0.048444644
88	0x3ab6f866	0.0013959527
89	0x3e2f64f3	0.17128353
90	0xbda3f642	-0.08005954
91	0xbd70474e	-0.05866175
92	0x3eed7cbf	0.46384236
93	0xbc9f25f4	-0.019427277
94	0xbd33edc3	-0.04392792
95	0x3d85b6a0	0.065289736
96	0xbd1fbee7	-0.039000418
97	0x3c654830	0.013994262
98	0x3d346c94	0.04404886
99	0x3ed58bc4	0.41708195
100	0x3edbe1ee	0.42945808
101	0xbc3369c4	-0.010950509
102	0x3ef87bda	0.4853199
103	0x3edc7bbf	0.4306316
104	0x3ec81f3e	0.39086336
105	0xbc2b6383	-0.010460737
106	0x3ede531a	0.43422776
107	0x3d3a1cc3	0.045437586
108	0x3ec2048a	0.37894088
109	0x3eda9a22	0.4269572
110	0x3ee5524f	0.4478936
111	0xbd95b353	-0.07309594
112	0x3f050ee0	0.5197582
113	0x3f0427cb	0.5162322
114	0x3ee83b00	0.45357513
115	0x3ebbeb45	0.36702934
116	0xbd6d4eb8	-0.0579364
117	0xbc647831	-0.0139446715
118	0xbd7a13ed	-0.06105416
119	0xbcc1143b	-0.023569217
120	0x3ef0c04e	0.47021717
121	0x3edbd7ff	0.4293823
122	0x3f06065e	0.52353466
123	0xbd0b6b8c	-0.03403811
124	0x3eb609fa	0.35554487
125	0xbd7675f9	-0.0601711
126	0x3ee2fe58	0.44334674
127	0x3ee0965c	0.43864715
128	0x3ee61e55	0.44945017
129	0x3f026667	0.50937504
130	0x3d30bf68	0.04315129
131	0xbf9d8f53	-1.2309364
132	0x3c0d1eca	0.008613298
133	0x3f10ca6f	0.5655889
134	0x3ed209b7	0.41023037
135	0x3d351330	0.04420775
136	0x3e53bc4c	0.20677298
137	0xbe93a7aa	-0.28838855
138	0x3dae7b0e	0.085195646
139	0xbf69257d	-0.9107283
140	0x3ca68478	0.020326838
141	0x3eb0778c	0.34466207
142	0x3eaa2302	0.33229834
143	0x3ed49c97	0.4152572
144	0x3ee5988a	0.4484294
145	0x3ea294f3	0.31754264
146	0x3ee06ad1	0.43831494
147	0x3eebdd9c	0.46067512
148	0x3ec520ce	0.3850159
149	0x3edbb0b6	0.42908257
150	0x3c9eadb0	0.01936993
151	0x3f0704d5	0.5274175
152	0x3e635253	0.22199373
153	0x3ed0f281	0.40810016
154	0x3ea3babe	0.3197841
155	0x3ee958e6	0.45575637
156	0x3e846d48	0.25864625
157	0x3d7352b7	0.059405055
158	0x3ec61826	0.386903
159	0x3ebf2162	0.37330157
160	0x3d820acb	0.06349715
161	0x3ee1a9e9	0.44074944
162	0xbd751484	-0.05983402
163	0xbd73105b	-0.05934177
164	0x3edf201d	0.43579188
165	0xbe192f3f	-0.14959429
166	0x3ec3dc9d	0.38254252
167	0xbd0bd80c	-0.034141585
168	0xbe8c84f8	-0.27445197
169	0x3eb57af8	0.3544538
170	0x3c6de699	0.014520311
171	0x3cd1f262	0.025628272
172	0xbedcbe82	-0.43114096
173	0xbf96262d	-1.17304
174	0x3ead6293	0.3386427
175	0xbb68116c	-0.0035410775
176	0x3f17bc81	0.5927201
177	0xbd98ce90	-0.07461274
178	0x3eb9e794	0.36309493
179	0x3eb9594a	0.36200935
180	0x3efd77e9	0.49505547
181	0x3ee23a37	0.4418504
182	0x3ebaa49e	0.36453718
183	0xbc66e43c	-0.014092501
184	0x3ecfee66	0.4061157
185	0xbbcdfa42	-0.0062859366
186	0x3eeb2961	0.45930007
187	0xbe4a44f3	-0.19752865
188	0x3ec7875c	0.38970459
189	0x3ed9727e	0.42470163
190	0x3ee3efaa	0.44518787
191	0xbd64fbce	-0.055904202
192	0x3ec76b44	0.38949025
193	0x3eb96cdf	0.36215875
194	0x3edf3d15	0.4360129
195	0x3ef2aab6	0.47395867
196	0xbcaf9db7	-0.021437509
197	0x3ed5f096	0.41785115
198	0xbcef1aef	-0.029187648
199	0x3ef0c83e	0.47027773
200	0x3f03641c	0.5132463
201	0xbd8ee124	-0.06976536
202	0x3e188e77	0.14898096
203	0x3db1b373	0.08676805
204	0x3ee8090c	0.45319402
205	0xbd763520	-0.060109258
206	0x3ef45bda	0.47726327
207	0x3c7bafeb	0.015361766
208	0xbf8827cb	-1.0637144
209	0x3f18fa6d	0.5975712
210	0x3d9c8ef7	0.07644456
211	0x3ec7fcb5	0.39059988
212	0xbd903a2d	-0.07042346
213	0x3ebd9d95	0.37034288
214	0xbf6c98ff	-0.92420954
215	0xbd94992f	-0.0725578
216	0xbf98d4a9	-1.1939899
217	0x3f034165	0.5127166
218	0x3f35bb28	0.709887
219	0x3d0d8d15	0.034558374
220	0x3ee368fd	0.44416037
221	0xbd9cb34a	-0.07651384
222	0xbd07551c	-0.03304015
223	0xbd4e91cc	-0.05043201
224	0xbd8532f7	-0.065038614
225	0xbd39029c	-0.045168504
226	0xbd598b74	-0.05311151
227	0xbe6423b5	-0.22279246
228	0x3eb22988	0.3479731
229	0xbd28bf87	-0.04119828
230	0x3ecb09d5	0.3965594
231	0x3ed87374	0.42275584
232	0x3ec5101e	0.3848886
233	0xbd8af7a5	-0.06785516
234	0xbd684542	-0.056706674
235	0xbd3a7057	-0.045517292
236	0x3ee01e77	0.43773243
237	0x3ec6b4c7	0.38809797
238	0xbe96c404	-0.29446423
239	0xbc66415d	-0.01405367
240	0x3ec9f89a	0.3944748
241	0x3ec8803e	0.3916034
242	0x3f0beed0	0.54661274
243	0x3eeb52f5	0.4596173
244	0x3d061e31	0.032743637
245	0xbc795ff1	-0.015220628
246	0x3d5292a9	0.051409397
247	0x3d13df9f	0.036101934
248	0x3ed07b2b	0.4071897
249	0x3ed425ba	0.41435033
250	0x3d55e5b1	0.052221004
251	0x3d107250	0.035265267
252	0x3edd9a65	0.43281856
253	0x3f33e3df	0.7026958
254	0x3edfe1ac	0.4372686
255	0x3efe6451	0.4968591

network.4.bias f4 [2]
0	0x3eb8e1d7	0.36109802
1	0x3ecca91f	0.3997278
